save/weights_i_h.npy (npy, 125568 bytes, 1 tensors)

array f8 [20, 784]
000000 6c 8f f4 63 d5 aa cd 3f 44 f3 ec a4 bc ea c0 bf
       0.23177592640524425 -0.13216360142714667
000010 ee 0e b6 4a 4a 9a de bf 70 a4 41 81 b5 57 d4 bf
       -0.47816712661754834 -0.31785333273598493
000020 c8 66 5d 9c c4 fa d3 bf 40 20 ec 7c 3d 33 da 3f
       -0.3121806647301182 0.40937745284509575
000030 8e 75 e3 8e 05 d1 d8 bf de 59 79 db 85 c5 df bf
       -0.38775767282444285 -0.4964308398533869
000040 3a 9b 4a 46 b1 cd d3 3f 42 8c 39 f1 80 f3 db bf
       0.30942947258374753 -0.43673728520497346
000050 98 4f 05 14 7a 6e bf 3f 0e ac 82 9c 67 70 de 3f
       0.12277949322498072 0.4756106403753514
000060 0a b4 5a fc 4a bd dd bf 8c 56 dd 0f 7a 34 de bf
       -0.4646785225293689 -0.47195292996671223
000070 64 40 ce 29 c0 39 c3 bf f7 bb 55 75 69 bc d9 3f
       -0.15019990960400087 0.40212475260244623
000080 82 f7 5f fe e9 21 d2 bf a0 f7 24 bc ab eb b0 bf
       -0.2833199485902399 -0.06609605162972665
000090 d8 13 59 4f df ce c9 bf 48 ea 4b 18 7a 34 da 3f
       -0.20162574171459258 0.40945293781956993
0000a0 20 2d 50 ab 99 10 d7 bf 68 d8 03 49 54 b1 cd 3f
       -0.36038820009044237 0.23197415890871587
0000b0 78 da fa a4 5c b7 d7 3f ac 2c 05 7a 97 57 d3 bf
       0.3705665217525289 -0.30222117343937316
0000c0 dc 4f 5b d0 69 f7 c6 bf 78 d4 33 cb 67 d7 c7 bf
       -0.17942545579592106 -0.1862611524772182
0000d0 d6 f7 98 e4 14 40 dc bf 50 70 8f 85 b5 8a a7 3f
       -0.4414112312696238 0.045980141214130854
0000e0 d2 54 59 0d 1c 24 d6 bf 2e ea 67 e6 db 67 d7 bf
       -0.3459539537773938 -0.3657140493448051
0000f0 00 ed 64 d2 59 c0 9d 3f 1a ab 62 1f 9c 21 d8 3f
       0.02905407282490291 0.3770513826845431
000100 f2 62 99 83 59 03 ca 3f a7 65 b5 f1 03 1e c6 3f
       0.20322722364178208 0.17279099752594826
000110 87 b8 75 87 98 b0 aa bf 3b a6 84 aa 4d d9 d7 3f
       -0.0521285691601046 0.372638145944254
000120 2c e8 dd a3 9f 44 c7 bf 56 ae 28 0b 74 28 cb 3f
       -0.18178172589597474 0.21217203659886036
000130 c0 61 db 2c 19 6e dd bf 74 2b f9 e8 ea 64 cc bf
       -0.4598448694282773 -0.22182976127291065
000140 16 fb 4e 09 ca 04 d3 bf 19 ca 57 13 21 5e d6 bf
       -0.2971673098472122 -0.3494951905151154
000150 cd af e7 ed fa 3d c9 bf 4c 25 aa 52 83 69 da 3f
       -0.19720398537117348 0.41269000122754984
000160 2d 3a cf ff 92 5f c3 3f 45 08 13 ee e4 9d d4 bf
       0.15135419359872185 -0.32213710069129703
000170 f3 7f a8 a1 2d 57 8c 3f d8 a1 77 a0 4a aa d4 bf
       0.013838154312054462 -0.32289376898418487
000180 44 2b f5 2d 34 66 bc 3f 07 ca 8a 15 ec 46 b5 3f
       0.1109345066262622 0.08311343694621352
000190 59 06 1b b8 b0 3e ba 3f bb 0d 77 e1 eb 74 c5 3f
       0.10251907820477281 0.16763065823589138
0001a0 0e 39 e0 59 13 64 d2 bf 40 9c 54 f7 43 4b c8 3f
       -0.2873581292814301 0.1897969205540182
0001b0 38 04 c5 a8 f7 f1 d7 3f 10 5b 36 6c 79 f5 aa 3f
       0.3741435192242224 0.052654070338738035
0001c0 00 70 7e 62 83 49 6f bf b4 15 72 1d 68 19 db bf
       -0.0038192335232007935 -0.42342570186186923
0001d0 ec 51 84 2c 8e ef aa bf d8 95 70 5b 18 c9 9e bf
       -0.052608912405194136 -0.03006399210075536
0001e0 11 bc 5d e7 26 95 c3 3f b6 73 91 e8 cf 35 ca 3f
       0.1529892568318876 0.2047672162615563
0001f0 f5 a7 4e 53 36 c1 b5 3f 49 71 7e 00 7e 74 d5 bf
       0.08497943433636108 -0.335235119325962
000200 bc b8 95 ae d5 78 dd 3f 1e 4b 75 03 ec db a1 3f
       0.4605001645021607 0.03488099615301209
000210 22 8e 0f 92 f8 0f cb bf 68 8b c4 53 a2 03 e1 bf
       -0.2114248955905263 -0.5316936145867261
000220 be 5e c4 89 8d 56 c4 3f 1b 90 3e c6 de a2 cc 3f
       0.15889138438136813 0.22372040443326643
000230 89 72 13 cb 10 40 24 bf a7 1e 60 a5 8c b9 be bf
       -0.0001544971942512195 -0.12001875913130765
000240 f3 ee 51 7f 7c fd c9 bf cf 81 df 43 28 64 c4 3f
       -0.20304828850554876 0.15930655778994526
000250 b2 13 d8 2f 02 c8 c1 3f ee fb f5 a6 82 e7 db bf
       0.13891627632270126 -0.43600527100346553
000260 6a 2c da 76 0d 1d c4 bf f5 15 c0 7b 2b c3 d2 bf
       -0.15713661483127633 -0.293162222719132
000270 a4 ab 46 e1 d2 fa d6 bf 1b 49 b9 2b 87 55 cb 3f
       -0.3590590667687883 0.2135476077551822
000280 92 d0 9f c5 62 e4 d6 3f 94 24 4e 10 93 98 d1 bf
       0.35768956469770175 -0.2749374064665713
000290 10 74 24 a8 dc 28 a0 bf f0 3d 8f c3 d2 b1 ac bf
       -0.03156175186652643 -0.05604418408585932
0002a0 40 42 80 91 db 37 89 bf 84 f5 6a 38 9e 8f de bf
       -0.012313571336592166 -0.47751575002242697
0002b0 df cf 38 87 a5 13 c9 bf a0 d3 4b cb 66 c6 dc 3f
       -0.19591206648476509 0.4496094689669068
0002c0 1e 50 82 f4 3e a8 de bf 99 e9 f7 25 e7 f2 d5 3f
       -0.4790189159186883 0.3429506178651081
0002d0 27 44 97 42 29 d9 a4 bf 8b bb 7e 8a 9b 65 b0 3f
       -0.0407193082606983 0.06405040866114413
0002e0 1f 4e 47 b2 a4 64 c2 3f 15 6f 44 91 a2 3e a0 bf
       0.1436963911533988 -0.03172786734850611
0002f0 b1 dd cd d9 ac c4 c3 bf a7 98 61 ac e5 cd bc bf
       -0.15443955073327012 -0.11251674135710009
000300 91 21 41 bb a8 b4 e0 bf d7 68 8f 58 06 9e d5 bf
       -0.5220531136811123 -0.337770067677082
000310 63 22 2f 7c ba 8e d1 3f a4 13 f2 7a ba e2 d6 3f
       0.2743364536986858 0.357588405670237
000320 bb be 65 33 89 16 e7 3f c4 7e e6 37 aa 9d d0 3f
       0.721500969300869 0.25962310275097544
000330 1f d8 f2 4f a3 df e9 3f ee 11 92 20 41 d9 85 3f
       0.8085495530601782 0.010668286138987928
000340 f5 2b 6c 87 2e 58 c3 3f 90 d9 b7 fa ee 2a d7 bf
       0.1511285935633563 -0.3619954536838117
000350 3e 38 45 b5 e1 f4 af 3f ff 11 ea 6f 0b 8a c0 bf
       0.062415173890812956 -0.12921278919760934
000360 b8 d7 21 b4 f2 1f a1 3f 43 48 8f 18 6e 60 be bf
       0.03344686936263436 -0.11865890597917521
000370 aa f6 8f 43 a6 99 dc bf c0 a1 4a f9 36 c3 d9 bf
       -0.44687801931272964 -0.4025399622428516
000380 00 f6 d6 4c 90 54 ce bf 07 cf 6c 80 56 93 d0 3f
       -0.23695567848146482 0.25899279157168603
000390 a2 29 81 39 78 1c d6 3f fd 94 8b 35 54 ba c2 3f
       0.34548764815976984 0.14631130804551865
0003a0 56 1f 5a f1 55 8b e0 bf 2d 1a 32 8b a0 fe d7 bf
       -0.517008754149155 -0.37491620629626504
0003b0 0c 64 51 72 d7 1f d3 3f 1f a9 40 e8 1f d4 c9 bf
       0.2988184563051284 -0.20178603020151173
0003c0 3d c8 d0 b4 5d c5 c4 3f 08 05 f7 fd 6d 58 d1 bf
       0.1622731335533575 -0.2710223178983857
0003d0 f6 37 82 02 1f 84 b7 bf 0c 24 da 11 2f 60 e0 3f
       -0.09185975848433245 0.5117411945985864
0003e0 a6 bd ee 72 1c aa d7 3f 5b e7 f7 9f 15 5e d8 3f
       0.3697577593220224 0.380742460459819
0003f0 ba fd 33 df ca 09 e8 3f 13 2f 7b 94 0d f0 ee 3f
       0.7511953696666105 0.9668033504508194
000400 d3 45 a2 47 42 1e e4 3f fd 9e a1 70 f8 01 93 3f
       0.6286937140559367 0.018562204241248093
000410 8c 8b 38 95 b2 a7 c7 bf 6f 16 75 4d 90 9e a3 bf
       -0.1848052242868018 -0.0383191198875864
000420 8e f2 dd bd f7 93 bf 3f db 50 88 a4 fa ce cf bf
       0.12335155854629873 -0.24850400003254589
000430 e1 fc 7e 18 3a 8f cb 3f a2 c0 f8 c8 6c e7 bf bf
       0.21530843921752932 -0.12462501436744103
000440 f2 75 5f d7 6f 18 e6 bf 5f 7d c7 b6 6f c9 dc bf
       -0.6904830175878358 -0.44979470109497827
000450 dd a0 6d 0b 79 74 e2 3f d3 19 ff 93 9f 75 d6 bf
       0.5767178748328906 -0.3509291596677972
000460 e6 a7 af 11 a5 82 df 3f a4 d7 10 73 4a 69 c9 3f
       0.4923489258495678 0.19852572077223585
000470 cf b2 b7 b2 12 17 b7 3f cd 8f f3 d4 0a b4 dd bf
       0.09019581664297081 -0.4641139106372492
000480 51 b2 b8 e0 9f bf d4 3f 2a a9 17 dd b0 62 d0 bf
       0.324195832686006 -0.25602361289078834
000490 3f 1f f3 7d 37 89 cf bf f0 d6 03 8e 4d 28 da bf
       -0.24637502336394765 -0.4087098967423648
0004a0 6c 0f e8 71 44 0a db bf 09 c3 4b 8e 7d f0 95 3f
       -0.4225016701095601 0.021425210771613332
0004b0 ab 16 9c d8 a8 56 a2 3f ff c8 2d 88 0e 32 c4 bf
       0.035817409936539 -0.15777761124952147
0004c0 18 73 4e cb 7f 2f ba bf 7b 9d 52 fc dc ba b4 bf
       -0.10228728021179412 -0.08097630653593584
0004d0 86 03 06 9a ac ae b2 3f bf b3 d6 5d 02 49 f0 3f
       0.07297781715716498 1.0178245225499578
0004e0 b6 7b ac a0 72 e3 df 3f da 6d 87 bc 5b 85 cf 3f
       0.4982573098258699 0.24625727372664025
0004f0 00 14 bc 87 5a fb c6 3f e9 22 02 73 07 69 cc bf
       0.17954570415182047 -0.22195523372308593
000500 c7 93 b0 4e c8 d1 b2 3f a3 d5 38 8e 25 72 b7 3f
       0.07351352616440386 0.09158549043862378
000510 7a d9 92 84 ec 77 d0 bf 61 01 95 9f 35 6d e7 bf
       -0.25731957384723325 -0.7320812336766204
000520 14 3c 75 5c 49 f4 d5 bf 66 2d 22 d2 06 b3 b8 3f
       -0.34303506878944856 0.09648172979557543
000530 1b fd 11 3f 31 fe d0 bf 53 86 5c 8c 00 e6 c1 bf
       -0.26551467093664066 -0.13983160832963168
000540 a8 28 c9 5b f8 4d b6 3f e1 94 fd 6b 89 a1 c9 3f
       0.08712723008025824 0.20024221203781337
000550 a5 76 4b e3 69 b0 d3 3f 1c a4 7a f0 50 f0 ca bf
       0.30764243313556455 -0.2104588674749558
000560 6e d8 4c 65 26 05 dd bf f6 a2 0b db d8 1c a5 3f
       -0.45343933003039794 0.04123571084875792
000570 5f 1a 66 9d 3c 79 b2 bf 00 5b 79 87 41 b8 d7 bf
       -0.07216242640252223 -0.3706210921276778
000580 7c a9 79 91 b7 33 c4 bf 14 1f d9 d0 cb 7d e2 bf
       -0.15782827952655143 -0.5778559760155724
000590 1d 84 59 82 f0 f3 de bf be 7c c7 88 bf c3 da bf
       -0.48363888482532663 -0.418197520802959
0005a0 d8 ca fa da 03 7c df bf 78 dd 5b b3 4d 83 e8 3f
       -0.49194427857143586 0.76602826148057
0005b0 03 4c 40 17 86 de b5 bf 37 91 f0 cd fd 63 e0 3f
       -0.08542669360785742 0.5122059843311381
0005c0 45 7c ee cf 68 93 e9 3f e1 5c 4b d3 d3 6f 7d bf
       0.7992443143047089 -0.007186725085112062
0005d0 a8 0e e5 97 da cb ec 3f 8a d9 37 0a e0 0c 7b bf
       0.8998845068640167 -0.006604075580517574
0005e0 3c f7 fd fa 64 91 e1 bf 09 86 12 dd 76 d0 d6 3f
       -0.5489983465374517 0.35647365178201135
0005f0 8f 71 56 73 18 ed da 3f ca 25 27 76 1e f3 ba 3f
       0.42072116149372446 0.10527220139115126
000600 5a f7 0d 5e 95 ca df bf 0c 60 d8 f7 ea 97 cb bf
       -0.49673971352591695 -0.215573664682552
000610 39 83 69 d0 17 c1 e1 bf 60 4b 7d 40 97 13 dc bf
       -0.5548209257650348 -0.4386957292346576
000620 d0 eb 02 c0 6b 84 c0 3f 67 8c 50 d7 f2 41 df 3f
       0.12904116511876262 0.48840018297977966
000630 4d 61 be 9e 05 c8 cb 3f 8f da db e2 8b 12 d2 3f
       0.2170416855922305 0.28238198427372024
000640 ce dd aa fa f4 ee b2 bf 5f 3f 01 dc 94 5f e5 bf
       -0.07395869369326322 -0.667917661377924
000650 da 3e 71 35 ea be b6 3f 72 67 89 f5 1c 16 d8 bf
       0.08885062985177275 -0.37634967783161877
000660 97 2e f7 1e 2c 59 d4 3f 09 22 43 72 fc 6f e2 3f
       0.31794264816265055 0.5761701804813707
000670 8b fa 85 36 88 5c d4 3f 68 5e ab 73 90 27 c7 3f
       0.31814771008058845 0.18089490554733634
000680 e4 e4 6e 9a 5e 62 b7 bf eb 01 ce 32 b1 9b d0 bf
       -0.09134475012151061 -0.2595026966228306
000690 07 59 e7 f2 1b 0f e1 bf a1 2c 60 c8 25 df c6 3f
       -0.5330943817341741 0.17868492397278593
0006a0 89 6e 5a b9 ea d2 d7 3f 15 43 ab 49 23 fd e2 3f
       0.37224834538367496 0.5934006155822283
0006b0 77 97 71 55 3e 85 e6 3f 25 64 f1 c0 d8 ff d3 3f
       0.7037650746176344 0.3124906429489463
0006c0 d5 b1 92 db c1 70 e2 bf 88 bb ef 51 b3 06 e3 3f
       -0.576264313558165 0.5945679283448593
0006d0 ff 4a 2f 2d b9 38 d2 3f ab a3 5f 90 c5 7e ad 3f
       0.2847121182687004 0.05760781657574595
0006e0 3e 92 7a 3e 5d 50 ce bf 59 5c c7 63 77 39 cf bf
       -0.23682752180788386 -0.24394123432168405
0006f0 14 26 2e 76 c7 89 94 3f 97 be 1d 4c a2 4d c3 3f
       0.020056835735465198 0.15080670086489498
000700 53 b5 f5 34 f9 44 dd 3f 6a ca 03 f4 24 ec c8 3f
       0.45733480617385175 0.19470655360017314
000710 8c f1 ed de a2 bf d8 bf bc 18 fc 77 56 0a c7 3f
       -0.3866965462728096 0.18000298365240563
000720 88 55 ce e1 ea 2f ba 3f 7e 62 87 92 6f 02 cf bf
       0.10229366314736954 -0.24226183562020148
000730 a6 0e c4 99 8b 45 cf bf 86 3c 45 36 98 48 de 3f
       -0.24430985458467552 0.4731808214173231
000740 5d 99 ce 62 1d d7 a2 3f b9 82 c9 8f 45 9b d9 bf
       0.036797445594219914 -0.4001020340129276
000750 63 78 24 7f f5 f9 d0 bf d8 54 c9 95 b4 bd d0 3f
       -0.2652562848687749 0.26157869937499134
000760 6e 2f 46 84 52 a2 da 3f 4e f5 3f d0 8b b8 e1 bf
       0.4161573688258987 -0.5537776057605386
000770 60 62 9e 48 a4 54 cc bf 15 11 1c f1 2e 65 eb 3f
       -0.22133306070169834 0.8561014851734706
000780 01 6b b5 d0 70 59 e0 3f 69 4c 62 8c 87 ad ea 3f
       0.5109180523243994 0.8336827985643939
000790 1a 0d cd 37 08 d7 c5 bf 8c bc d7 78 98 67 c4 3f
       -0.17062475895554813 0.15941148663066362
0007a0 94 23 c3 fc 3b e2 98 3f a5 ee ab 22 90 36 ca bf
       0.024300515463241704 -0.20479013150167194
0007b0 51 a8 2a 82 6b af e6 3f 88 69 d4 a5 02 d1 dd 3f
       0.7089135687176712 0.4658819789343842
0007c0 c0 37 59 66 5a 9a eb bf 24 5d 7e ee 9a 34 f1 bf
       -0.8625919341081882 -1.0753430668026533
0007d0 e2 dc dc 2e 28 e9 d1 bf d8 ea 89 d3 a1 c4 dd 3f
       -0.27985577179374677 0.465126473027039
0007e0 8e 10 6b d7 7d 8c d3 3f 1b 5c a8 20 3b e3 bf 3f
       0.3054499248212402 0.12456101939493218
0007f0 3d 18 df 22 0f b4 b8 bf 3c ea 78 4c d5 a4 dd 3f
       -0.09649748422006695 0.46318562000275043
