save/weights_h_o.npy (npy, 1728 bytes, 1 tensors)

array f8 [10, 20]
000000 f1 a6 1d e3 eb 26 12 40 5e d4 ba e3 45 fd 14 c0
       4.538009213146993 -5.247336920049831
000010 86 6e d3 3a 26 1d cd 3f d8 0a 04 ff 19 09 f5 bf
       0.22745206711157467 -1.3147220574907603
000020 4f 7e 2f e0 c9 5f 15 c0 eb 10 80 55 be 9f f9 bf
       -5.343543532274977 -1.6014998760083994
000030 91 68 ec f0 9a 96 0f 40 70 f9 70 b2 74 d1 f9 bf
       3.948537714209188 -1.6136366815913696
000040 e5 60 cb 4d ae 90 01 40 74 59 65 7d 80 82 ea 3f
       2.1956449582759086 0.8284304093493078
000050 69 fc 18 66 88 b5 d9 bf dc b7 6a 83 4c 37 13 c0
       -0.4017048832938089 -4.804002812756121
000060 62 79 a6 ad ac ef 05 c0 42 16 a4 22 6c eb f4 bf
       -2.7420285765103225 -1.3074761727488213
000070 bb f6 76 f0 7b aa 06 c0 fd 10 d2 6d 45 c8 1b c0
       -2.833244207983481 -6.94557735056537
000080 b2 ce 5d ed de 56 f5 bf 92 ad 13 ea fb b9 0d 40
       -1.3337086937071203 3.715812519765401
000090 cb 79 b6 22 c5 16 d4 bf 43 65 ac 4d d4 b0 e0 bf
       -0.31388977422639347 -0.5215856091555583
0000a0 c6 4e 86 73 b7 e1 d6 3f 6d 86 8a 27 32 91 01 c0
       0.35752664834693026 -2.195896443285895
0000b0 0a 91 ba da 44 d5 05 40 68 cb 98 47 a8 36 ef bf
       2.729135235613403 -0.9754220388771104
0000c0 39 ed 60 12 f6 99 13 40 ba 27 1f 00 df d0 e8 3f
       4.900352751890119 0.7754969599129631
0000d0 66 87 58 69 e5 f1 08 c0 96 93 b9 bd ca ca 0b 40
       -3.118113348974407 3.474019510484548
0000e0 db 6b 02 33 9d 8f 02 c0 7e a7 de f3 82 71 08 c0
       -2.3201240525354314 -3.0554255535434427
0000f0 81 45 8c eb cf 9b 09 40 6d 2c ba 4a 57 c3 0a 40
       3.2010801698858704 3.345381339842382
000100 e6 2c 50 06 a1 cf fd bf 93 f5 7e 43 35 80 dc 3f
       -1.8631906744583886 0.44532519904518003
000110 1c 6d 51 20 20 df 06 c0 a6 d4 24 e0 5d 71 07 40
       -2.8589479946946437 2.9303548346748185
000120 5c a6 f3 a5 51 21 13 40 72 60 f6 0f d7 a5 f2 3f
       4.7825380258524 1.1654883025676352
000130 cf 54 45 f2 68 89 1b c0 05 6c 7e 4b f5 c2 14 c0
       -6.884189401132246 -5.190388850775894
000140 4e 9e 8e 97 4c 3b f4 3f 51 4c e4 f9 2b d5 18 40
       1.2644773407172525 6.208175568160258
000150 c8 d2 b8 1b af 14 f0 bf ac dc 0a 8d 1b 20 fc 3f
       -1.005049808777743 1.757838774630538
000160 98 d6 f5 f3 db 13 11 c0 a5 d9 a1 9f 7c 5e f6 bf
       -4.269393741493012 -1.3980680690416218
000170 d5 0f ba 27 d6 f2 f0 bf d1 4e 20 d1 3b 80 d3 3f
       -1.0592862655475888 0.30470176146012046
000180 4f 14 f2 49 6e 77 11 40 54 cd 6e 2b 27 8d f5 bf
       4.3666316560748575 -1.346961183223205
000190 b0 be 3a 53 da f3 0c 40 3e f2 ed c2 86 13 0d c0
       3.6190687658598435 -3.6345343808045802
0001a0 8d 7b be 78 d5 88 04 c0 dc 69 2c 2c 63 e4 0a c0
       -2.5668134148722346 -3.361517281632798
0001b0 e7 c8 90 fe ff bd e7 3f 8f f7 5b d5 ff d1 14 40
       0.7419433567031576 5.205077489603254
0001c0 35 16 8f 15 17 36 ef 3f e8 bd e3 db 0c 06 f2 bf
       0.9753528042862799 -1.126477106994452
0001d0 a6 5a a8 25 b0 6c 11 40 1d 23 df 8d 5f d5 1e c0
       4.356140697861212 -7.708372322792255
0001e0 b0 32 10 17 d5 40 c4 3f 2c 0e bd d3 b8 36 0e 40
       0.1582285273183479 3.7767197172231786
0001f0 54 45 83 fc 76 59 de 3f c7 ca e8 b4 7b ad 05 c0
       0.4742104974694332 -2.709708608011485
000200 7b 56 53 89 cf 7f fa 3f 37 f7 5a 3a a3 45 c1 3f
       1.6562037815359918 0.13493767117864205
000210 43 32 2b 16 a0 45 fc 3f c0 6e 03 6f 8a 2b 11 c0
       1.766998373600601 -4.292520269951353
000220 a1 0b 0d 9f d6 83 07 c0 06 3a 8a 84 82 71 fe bf
       -2.9393742013794086 -1.9027123620359148
000230 24 a9 1a d7 93 88 15 c0 42 12 7b 2e 82 5f d2 bf
       -5.383376465799561 -0.2870793775476025
000240 cb 8d 56 13 1e 79 15 c0 18 67 c4 30 87 95 03 c0
       -5.36827879157813 -2.4480117616593695
000250 cc b2 85 d2 b1 76 13 40 2d 0f 76 0a d2 26 fa bf
       4.865912713442139 -1.634477654327337
000260 fb f4 74 f1 e6 0d 07 40 5c e9 dd ad 71 26 00 c0
       2.881788145429366 -2.0187715133044275
000270 fd f3 b6 6d e2 90 0d 40 06 96 c6 99 de 67 00 c0
       3.695744378228936 -2.05071754586493
000280 f8 1e 27 92 28 8e f6 bf 86 96 7d a2 24 e8 10 c0
       -1.4097066601843249 -4.226702250399859
000290 02 ed b9 56 c8 dd 11 c0 f6 74 fa c2 7f 61 fa bf
       -4.466584544275294 -1.6488034836141288
0002a0 6b c1 34 09 71 68 0d c0 51 75 79 d6 07 89 fd 3f
       -3.6759968489861214 1.8459547403247891
0002b0 8e 21 13 9a 2c 52 ee 3f ee 21 3e f9 17 a2 0e 40
       0.9475310334465108 3.829147288521418
0002c0 bc ab 49 18 a8 98 12 40 a3 9c b0 8f cb 66 17 c0
       4.649078731056701 -5.850385899691136
0002d0 81 26 b2 bf f7 fb cc bf 99 89 93 e1 31 c1 e1 3f
       -0.22643944606925362 0.5548333555018871
0002e0 41 c5 2e ac 70 a1 f6 3f 97 e6 0e ef 9f ab 13 40
       1.4144140935789695 4.917602286610097
0002f0 b9 55 ad 1d b2 6e c7 3f 79 2f 77 f1 b3 d6 15 c0
       0.18306566666676163 -5.4596708039279
000300 77 a1 5d 99 79 8f cd bf 48 cf 9f 0d ee 30 0a c0
       -0.2309410094124009 -3.2738915504832313
000310 d2 c6 16 93 5f f3 7d 3f ec c8 68 c4 5c 42 f5 bf
       0.007312177026891313 -1.3287017509688281
000320 be 02 24 17 63 94 18 c0 15 41 e5 b5 4f 92 f8 bf
       -6.144909249852104 -1.5357205491346282
000330 e1 76 25 f7 b2 ea f6 bf 89 64 4f 1d 24 00 f2 3f
       -1.4322995809702024 1.1250344414641253
000340 18 fc 7f 45 49 85 0c 40 50 9b 7b 21 19 ed 12 40
       3.5650811605151027 4.731541178864816
000350 f6 83 ad bd 64 01 f6 3f f0 f3 fb 84 ef b9 f6 bf
       1.3753402146614895 -1.4203944391913375
000360 90 43 aa f6 9c 0f c2 bf 20 d1 ab 1b 63 4f ef 3f
       -0.14110147518342986 0.9784408131077136
000370 9d d9 2f d8 fb 91 eb bf c0 9f e5 e5 79 45 03 40
       -0.8615702841187162 2.4089239083004657
000380 82 b2 6b 11 41 76 18 c0 70 0c 95 6c 24 21 04 c0
       -6.115482589910814 -2.5161827548013704
000390 0a ae bb ba a5 da 06 c0 2e 49 f4 70 b5 ac 0e 40
       -2.8567614162946073 3.83433044667722
0003a0 4d 91 dc 22 a8 0f 21 c0 e9 10 c8 bc 84 ff ff bf
       -8.530579652237657 -1.999882447650686
0003b0 f0 06 2a 30 67 cd 17 c0 b0 49 05 76 f9 21 03 40
       -5.950588944020396 2.391589090381977
0003c0 b0 9d 55 f9 db fd 00 c0 cc 60 ec 19 7f a5 1e c0
       -2.123954723286907 -7.661617665340781
0003d0 81 cb dc 40 d5 58 15 40 34 9d de 56 31 3f f1 3f
       5.336750997043851 1.0779279130309307
0003e0 04 3e 5b 92 40 72 10 40 79 d4 6f 79 6d 4c fb bf
       4.111574446505532 -1.7061590903879547
0003f0 75 4f fd 84 55 c7 12 c0 ea 92 2f bb 71 a8 f8 3f
       -4.69466216846546 1.5411240875193308
000400 ec e8 ba 51 b3 c6 f3 bf a2 29 35 f5 0e c4 0a c0
       -1.2360108559210472 -3.3457316548203417
000410 ce ec 34 e3 bd aa f8 3f 11 79 68 4a 55 7c 17 c0
       1.541684997106859 -5.8714191080346305
000420 2b 7d c3 64 23 fc 00 40 4d ed 8d 92 cd 91 01 c0
       2.123114382949685 -2.196192879635112
000430 97 92 ef 64 7d 3a ef 3f b0 51 45 b3 f1 93 14 c0
       0.9758898707774105 -5.1444767008837715
000440 4a 29 be 33 c3 00 11 c0 2f 94 97 07 96 d8 04 40
       -4.250744636994861 2.605754908860511
000450 71 de 29 01 b0 b0 e7 bf bd 53 62 62 7f 39 07 c0
       -0.7403183005071253 -2.903074997544961
000460 42 66 3c 19 9b 99 e4 3f b0 cd 2c 46 ac db 0b 40
       0.643750714577614 3.482262180559438
000470 12 b9 53 b8 66 33 15 c0 8c 57 ad 90 05 8e 13 c0
       -5.300196533308069 -4.888693104343371
000480 28 dc a1 3f c2 4a ff bf 4d 27 41 f2 a0 40 dc 3f
       -1.9557516561160444 0.4414446225897464
000490 b4 a9 43 fa 7e c8 03 c0 5b 43 de 11 cd 76 e3 bf
       -2.4728984405421333 -0.6082520817745761
0004a0 a6 56 f8 9f a9 c3 04 c0 3d 37 aa f7 09 fc f0 3f
       -2.595538377538861 1.061532943192517
0004b0 9c c6 35 b3 7f 07 07 c0 cd e2 6a 7b 82 2b f7 3f
       -2.8786615372453763 1.4481224843022347
0004c0 ee 69 0e 58 13 bc 0b 40 78 b7 29 98 98 33 11 40
       3.4668337706946124 4.3003867888891065
0004d0 e7 4c 36 bd b0 be fa bf e5 ae 3c 4a 0c d3 07 40
       -1.6715552702997287 2.978050785042671
0004e0 99 4b f1 3e 06 78 fe bf 7d 6e de 17 93 b4 0e 40
       -1.9043028315252057 3.8381711830859886
0004f0 87 22 dc 47 60 da f6 3f 27 2a d1 7e dc 37 fb bf
       1.4283144766833702 -1.7011380151549333
000500 9c 1d 18 87 e9 17 f9 3f a5 51 9d 00 8e 0f 1d c0
       1.568337943755842 -7.265190133668885
000510 60 6b 56 fa 58 c4 19 40 ae ca bc 39 80 c1 e1 bf
       6.4417456736799465 -0.554870713013164
000520 fd 20 63 26 23 8c 18 c0 13 ba ab b3 d8 f6 fd bf
       -6.136852836418481 -1.8727652567282618
000530 ff f1 e8 dd 92 5a 11 c0 3f bf ab 52 fa 3b 0a 40
       -4.338450877516606 3.2792860468543092
000540 cd 39 ce b9 00 73 ee 3f b2 4c 90 33 8b 5d 06 40
       0.9515384320273427 2.795675661889242
000550 69 5b 77 0d 0d 5d 0d c0 bd 29 50 2a 5a cf 0c 40
       -3.6704350521135223 3.6012461953843897
000560 61 40 83 14 29 e7 fc bf b3 01 a7 47 cc 5c 01 c0
       -1.806435661437739 -2.170311507972849
000570 ab 80 59 2b e4 ef 0b 40 a7 4c fc cf 1c f8 07 c0
       3.4921344172181157 -2.996148705374782
000580 f8 78 ba 61 c0 b0 f3 bf 33 d3 55 d7 b8 f6 f3 bf
       -1.2306522195354415 -1.247734872010551
000590 1b 50 53 f9 1b 55 10 40 ae 4c ee 5e 25 53 16 c0
       4.083114524564759 -5.581197245878839
0005a0 3a 65 2b a6 8a 70 e7 bf 59 a8 5e 16 4c 1e 17 c0
       -0.73248798804267 -5.779587125327532
0005b0 dc 0c 7b 89 78 8e 11 c0 2e 20 2e 32 4e 7d 01 40
       -4.389131687293425 2.186184303314824
0005c0 46 fd b1 8c df 10 ba 3f b1 80 3b ae 6d 28 12 c0
       0.1018199652189554 -4.539480898267514
0005d0 12 ff ee eb bc cc 04 40 b9 ef 11 5d 0f 0f f5 bf
       2.599969714385119 -1.316176761202753
0005e0 a3 8d 8e ce dc b9 04 c0 59 62 49 9e f1 5a 18 40
       -2.590753186917668 6.088812325696005
0005f0 ba 69 10 ec 9a 9d ff 3f 07 2f ae 6b c1 09 f3 bf
       1.9759778233770775 -1.1898817259088348
000600 86 44 de a6 fc d4 04 40 65 94 98 a6 1b 26 1e c0
       2.6039975201206884 -7.5372148543002355
000610 87 03 37 b6 93 ae f4 bf ea f4 62 5f ea 73 15 c0
       -1.2926213376779019 -5.3631987480305074
000620 c3 c4 9f 6b cf 30 fa 3f 68 ca db 28 ca 13 09 c0
       1.6369165615144972 -3.134662932593802
000630 a9 2d 9d aa 44 e9 08 c0 f2 09 4e 4b 75 c8 fa 3f
       -3.113900502130225 1.6739399854274066
